saved_models/archive/BigramModel.pt (torch, 3767 bytes, 1 tensors)

embeddings.weight f4 [27, 27]
0	0xbf95f29e	-1.1714666
1	0xbed34256	-0.41261548
2	0xbd70ae86	-0.05876019
3	0x3f556018	0.8334975
4	0xbfb42670	-1.407423
5	0xbed79a70	-0.42110014
6	0xbeece625	-0.46269336
7	0x3d651018	0.05592355
8	0xbf3427bd	-0.70373136
9	0xbeb9cace	-0.3628754
10	0x3e3bbf7d	0.18334766
11	0x3f89c05e	1.0761831
12	0xbfd47208	-1.65973
13	0xbf25b647	-0.6473126
14	0xbfa8bafd	-1.3182064
15	0xbf21a24b	-0.63138264
16	0xbf595dbf	-0.8490867
17	0x3ee99109	0.45618466
18	0x3e8a33b6	0.26992577
19	0xbdc89b8a	-0.09795292
20	0x3d97a938	0.07405323
21	0xbf8943c2	-1.0723803
22	0x3eac8632	0.33696133
23	0xc00d0e56	-2.204
24	0xbe15295f	-0.14566563
25	0xbdcbf815	-0.09959427
26	0xbd0d021f	-0.03442585
27	0x3f93820d	1.1524063
28	0xbedd35dc	-0.43205154
29	0xc01b48c4	-2.4263163
30	0xbfdf4b6e	-1.7444894
31	0x3f4c0524	0.79695344
32	0x3ee8475e	0.4536695
33	0xbe324116	-0.17407641
34	0x3fa2441b	1.2677034
35	0xbe88c8fe	-0.26715845
36	0x3fa77276	1.3081806
37	0xbf26908c	-0.6506431
38	0xbfbf867c	-1.4962916
39	0xbe0a3ee2	-0.1350055
40	0x3f4e81cf	0.8066682
41	0xbf32dfc7	-0.6987271
42	0xbd887bbf	-0.06664228
43	0xc0307c13	-2.757573
44	0x3f2e0793	0.6798031
45	0x3f0c5e6d	0.5483158
46	0x3ea5a025	0.32348743
47	0x3fcac2cd	1.5840698
48	0x3f2f88ef	0.6856832
49	0x3eb90f11	0.36144307
50	0x3e24f074	0.1610735
51	0xbfba93d6	-1.4576366
52	0xbe42bdf9	-0.19017781
53	0x3e828ae6	0.25496596
54	0xbfabf7ef	-1.3435038
55	0x3ce71429	0.028207855
56	0xbe2267e0	-0.15859938
57	0x3be58ac5	0.007005068
58	0x3f0aea23	0.54263514
59	0xbf921dc5	-1.1415335
60	0x3f4beaf2	0.79655373
61	0x3eb0f43d	0.3456134
62	0xc022c4c4	-2.5432596
63	0x3fed990c	1.8562331
64	0x3e95eea8	0.29283643
65	0x3f429770	0.76012325
66	0x3edc5589	0.43034008
67	0xbf25509a	-0.64576113
68	0xbfc83a25	-1.5642744
69	0x3e452a95	0.19254525
70	0x3f30545a	0.6887871
71	0x3e04810f	0.12939857
72	0x3e0074b3	0.12544517
73	0xbe5dbc46	-0.21653852
74	0xbfb6a4f5	-1.4269091
75	0x3c4cf2d7	0.012509069
76	0xbc47ae8e	-0.012187613
77	0xbe4d72ac	-0.20063275
78	0xbef1bbc4	-0.47213566
79	0xbf4f8eb1	-0.81077105
80	0xbf4c93b3	-0.7991287
81	0xbdd2ef6c	-0.10299572
82	0x3ef609f7	0.48054478
83	0x3f8f07da	1.1174271
84	0x3e58c4ac	0.21168774
85	0x3f7f0ea5	0.9963172
86	0x3e86272b	0.26201758
87	0x3f82a604	1.0206914
88	0xbf3bdb88	-0.73381853
89	0xbf71b23b	-0.94412583
90	0x3e98d2f9	0.2984846
91	0xbd47f5cf	-0.048818406
92	0x3f8b8f73	1.0903152
93	0x3e6a6d7f	0.22893332
94	0x3dbc7c75	0.09203426
95	0x3f547380	0.8298874
96	0x3f829191	1.0200673
97	0x3d355455	0.04426988
98	0xbe990c38	-0.29892135
99	0xbfaeb417	-1.3648709
100	0xc004b3aa	-2.0734658
101	0xbf786679	-0.9703136
102	0xbee82f18	-0.4534843
103	0xbf12990f	-0.572648
104	0x3f40a40c	0.75250316
105	0xbfb45e16	-1.4091213
106	0x3e04950a	0.12947479
107	0xbf04c150	-0.5185747
108	0xbda97af3	-0.08275404
109	0x3f8d9879	1.1062156
110	0xbe49fbe1	-0.1972499
111	0xbba9d57a	-0.005182919
112	0xbfec85ca	-1.8478329
113	0x3f0e3537	0.5554995
114	0x3faedc12	1.366091
115	0x3e75cd63	0.2400413
116	0xbfba9d37	-1.4579228
117	0xbfa271af	-1.2690943
118	0x3f4771f6	0.77908266
119	0xbf2d704d	-0.6774948
120	0x3f263e56	0.6493887
121	0xbf35a96e	-0.70961654
122	0xbfef2d63	-1.8685726
123	0x3edda797	0.43291923
124	0x3d228382	0.039676197
125	0xbf84117a	-1.0317833
126	0xbf6660a0	-0.8999119
127	0xbeaee022	-0.34155375
128	0x3f8505e3	1.0392421
129	0xbede14c5	-0.4337522
130	0xbf6cdfa8	-0.9252877
131	0xbef5bb1b	-0.47994313
132	0xbfa0b326	-1.2554672
133	0xbfcecbb1	-1.6155912
134	0xbf229de1	-0.63522154
135	0x3ed11897	0.40839073
136	0xbf055cfd	-0.52095014
137	0x3fc0e236	1.5069034
138	0xbebb98c9	-0.36640003
139	0x3fa651ec	1.299375
140	0xbdd24d19	-0.102686115
141	0xbdf62dc2	-0.12020446
142	0xbf3cd112	-0.73756516
143	0x3f92d851	1.1472265
144	0xc00a6161	-2.1621935
145	0xbe6e7dac	-0.23290128
146	0x3dea47e7	0.114394955
147	0xbf37ca69	-0.7179323
148	0x3e60aedd	0.21941705
149	0x3f870472	1.0548232
150	0x3ed2eb53	0.41195163
151	0xbf22e094	-0.6362393
152	0x3fdb9166	1.7153747
153	0x3fef8fd1	1.8715764
154	0x3fe225b9	1.7667762
155	0xbefe8ccd	-0.49716797
156	0x3f3e0f00	0.7424164
157	0xbd9e4ad8	-0.07729119
158	0xbf462b5f	-0.7740993
159	0xbcb3a749	-0.021930354
160	0xbf1fb1d7	-0.6238074
161	0x3f4b1752	0.7933246
162	0x3f97c76f	1.1857737
163	0x3f4fd90c	0.8119056
164	0xbf2369f9	-0.63833576
165	0x3fdd5c6a	1.7293828
166	0xbf1a6cd5	-0.60322315
167	0x3f374f50	0.71605396
168	0x4016d201	2.3565676
169	0x3f6ecdb9	0.9328266
170	0xbf428d31	-0.7599669
171	0xbfb8b2a7	-1.442952
172	0x3eb49b6b	0.35274825
173	0x3eb896de	0.36052603
174	0x3de6b3ec	0.11264786
175	0xbf28b50a	-0.65901244
176	0xbd41c482	-0.047306545
177	0x3fc749fa	1.5569451
178	0xbe141211	-0.14460017
179	0x4007ed63	2.123864
180	0x3fc396e0	1.5280418
181	0xc01c7458	-2.444601
182	0xbaf0dcca	-0.0018376347
183	0xbf80c601	-1.0060426
184	0x3ea7242f	0.32644793
185	0x3e986b61	0.29769424
186	0xbedab99f	-0.42719743
187	0x3fd3b4fb	1.6539606
188	0xbf434037	-0.7626986
189	0xbfcdd015	-1.6079127
190	0x3f8194b3	1.0123504
191	0xbf7158d0	-0.9427614
192	0xbe7ac5dc	-0.2448954
193	0xba56251e	-0.0008168983
194	0x3ecfd2f4	0.40590632
195	0x3f9d5385	1.2291113
196	0x3f3a1ad2	0.72697175
197	0xbedb1cc2	-0.42795378
198	0x3fb14eb2	1.3852141
199	0x3d82b035	0.06381265
200	0x3f146111	0.5796061
201	0xbf3dc7d7	-0.74133056
202	0xbfaa6b00	-1.3313904
203	0x3edd7def	0.43260142
204	0xbe914c9a	-0.28378755
205	0x3e8ceabb	0.27522835
206	0x3f632956	0.8873495
207	0xbf9503af	-1.1641749
208	0xbf2b8638	-0.67001677
209	0x3f5cd82c	0.8626735
210	0x3f4396a5	0.7640174
211	0xbf3806cf	-0.7188539
212	0xbf26794e	-0.65028846
213	0x3f031ad9	0.5121284
214	0x3ecb19ea	0.39668208
215	0xbd83db33	-0.06438293
216	0xbe915dfd	-0.2839202
217	0xbfece564	-1.8507504
218	0xc033f4df	-2.8118207
219	0x400aa2dc	2.1661901
220	0xc014803e	-2.3203273
221	0xbe9ace32	-0.3023544
222	0x3f003e50	0.5009508
223	0x3dc89f7c	0.09796044
224	0xbfc4e3a5	-1.5381972
225	0xc0135825	-2.302255
226	0xbf83a985	-1.0286108
227	0xbdac54bb	-0.084145986
228	0x3f19fddd	0.6015299
229	0xbf88c9cc	-1.0686584
230	0x3f8ebc67	1.1151246
231	0xbdb15b53	-0.08659997
232	0xbe51e453	-0.20497255
233	0xbe26e476	-0.16298088
234	0xbf2705af	-0.6524305
235	0xbcd3e4a4	-0.02586586
236	0xbf685625	-0.90756446
237	0x3f23b980	0.63954926
238	0x3f4c94d3	0.7991459
239	0xbf89a48c	-1.0753341
240	0x3f865b5e	1.0496633
241	0xbfd4ac48	-1.6615076
242	0xbe488ab0	-0.19584155
243	0x3f99dcbb	1.2020487
244	0x3ea7fe45	0.3281118
245	0xbed8ccc1	-0.42343715
246	0xbfbf3ecc	-1.4941039
247	0xbeac6ec7	-0.33678266
248	0xbea71769	-0.32635048
249	0xbf19c06e	-0.6005925
250	0xbebe7ed4	-0.37206137
251	0xbf4dffcb	-0.80468434
252	0x3e21eca4	0.15812927
253	0xbea8ee46	-0.32994288
254	0x3d7f71fa	0.062364556
255	0xbf6031b1	-0.87575823
